…
        "outputId": "e0b8f61f-5f28-47b9-d9e4-52620f9f6b06",
        "colab": {
          "base_uri": "https://localhost:8080/"
        }
      },
      "source": [
        "model.summary()"
      ],
      "execution_count": 18,
      "outputs": [
        {
          "output_type": "stream",
          "text": [
            "Model: \"sequential\"\n",
            "_________________________________________________________________\n",
            "Layer (type)                 Output Shape              Param #   \n",
            "=================================================================\n",
            "conv2d (Conv2D)              (None, 28, 28, 16)        160       \n",
            "_________________________________________________________________\n",
            "max_pooling2d (MaxPooling2D) (None, 14, 14, 16)        0         \n",
            "_________________________________________________________________\n",
            "conv2d_1 (Conv2D)            (None, 14, 14, 32)        4640      \n",
            "_________________________________________________________________\n",
            "max_pooling2d_1 (MaxPooling2 (None, 7, 7, 32)          0         \n",
            "_________________________________________________________________\n",
            "conv2d_2 (Conv2D)            (None, 7, 7, 64)          18496     \n",
            "_________________________________________________________________\n",
            "max_pooling2d_2 (MaxPooling2 (None, 3, 3, 64)          0         \n",
            "_________________________________________________________________\n",
            "flatten (Flatten)            (None, 576)               0         \n",
            "_________________________________________________________________\n",
            "dense (Dense)                (None, 54)                31158     \n",
            "_________________________________________________________________\n",
            "dense_1 (Dense)              (None, 10)                550       \n",
            "=================================================================\n",
            "Total params: 55,004\n",
            "Trainable params: 55,004\n",
            "Non-trainable params: 0\n",
            "_________________________________________________________________\n"
          ],
          "name": "stdout"
        }
      ]
    },
    {
      "cell_type": "markdown",
      "metadata": {
…
